models/lstm_res/0716.pt (torch, 6089 bytes, 10 tensors)

lstms.weight_ih_l0 f4 [12, 3]
00000000: 2846 03be 9d04 833f 17b6 4640 61a1 2640
00000010: a9da a73f bf13 663f dce6 bebd cfbf 8cbf
00000020: ca5c 0740 ac29 09bf bc7e 0440 069e 1f3f
00000030: ad07 e1bd a16e 46bf 46c9 40be 8c12 073f
00000040: 2d02 1c3d 647b 45bf 27f6 2bbf 8beb a13f
00000050: ffb3 4940 95da cabd 7e5c 9f3e 8fe2 96be
00000060: 14e9 59be edc0 afbe 9041 18bf e40b 50bf
00000070: f23f 2ebd 76c2 db3e fbe5 823f 6cc8 3140
00000080: 1af2 0440 4ac7 30bd df61 a2ba 1571 133f
-0.12819731 1.0235783 3.104864 2.6035998 1.3113605 0.8987388 -0.09321377 -1.0996035
2.1150384 -0.5357921 2.0702353 0.623505 -0.10987792 -0.77512556 -0.1882678 0.52762675
0.038088012 -0.77141404 -0.67172474 1.2650007 3.151611 -0.099049725 0.31125253 -0.29469725
-0.21280318 -0.34326878 -0.5947504 -0.81268144 -0.04254145 0.429218 1.0226434 2.7778578
2.0772767 -0.043158807 -0.0012388787 0.57594424

lstms.weight_hh_l0 f4 [12, 3]
00000000: 1715 273f f24a db3e edbd cabf 750d 0a40
00000010: ab46 0640 c7bd fb3c 8ee9 02c0 6c3b 28c0
00000020: e0e0 d9bf 83e3 543f 92b5 29bf eb4c abbf
00000030: cd26 1940 b208 aa3d 4bd8 a6c0 1f79 26bf
00000040: 1d08 3cc0 54a8 18c0 26d7 45bf e5c7 94be
00000050: 06cd 02c0 65c3 ee40 5eaa 02c0 4035 b3bf
00000060: 20ea eb3e fd58 d03f 4bb3 e8bf 4b18 80c0
00000070: 47c1 b0bf b453 13be effc c13f 6efb 1540
00000080: bb83 02bf 0f69 ff3e bdbc 97bf 1b4f 5440
0.65266556 0.42830616 -1.5839211 2.1570714 2.0980632 0.030730141 -2.045505 -2.6286268
-1.7021751 0.83159655 -0.6629268 -1.3382849 2.3929932 0.0830244 -5.213903 -0.65028566
-2.9379952 -2.385274 -0.77281415 -0.29058757 -2.0437636 7.461352 -2.0416484 -1.4000626
0.4607706 1.6277157 -1.8179716 -4.0029655 -1.3808984 -0.14387399 1.5155314 2.343471
-0.50982255 0.4988484 -1.1854473 3.3173282

lstms.bias_ih_l0 f4 [12]
00000000: ebd7 ea3f ffb3 943f e63b 73bf 9eb3 723f
00000010: 587f 003f 2b36 ab3d ff05 733f 396d b93f
00000020: 5152 fb3e d242 d43f ab52 1a40 2239 203e
1.8347143 1.161743 -0.9501327 0.94805324 0.5019431 0.08359941 0.94931024 1.4486457
0.4908624 1.6582892 2.4112957 0.15646794

lstms.bias_hh_l0 f4 [12]
00000000: 32c3 0f40 75c8 a23f 9c8a 36bf 2451 863f
00000010: 245e 953f 2afe 4ebe 7184 613f e719 483f
00000020: 4672 87be f0ad a13f 67b0 3240 8cdf 4ebe
2.2462888 1.2717425 -0.7130525 1.0493512 1.1669354 -0.20214143 0.88092715 0.78164524
-0.2645437 1.2631207 2.7920167 -0.20202464

lstms.weight_ih_l1 f4 [12, 3]
00000000: 830e 18c0 be38 e1bf 5380 dbbf 18e5 ef3f
00000010: a333 86c0 00e8 453f d9e4 c73f aa59 b83f
00000020: 96d1 9c40 c877 20c0 84ce c7bf cc12 15c0
00000030: 86b2 3c40 d520 91bf 7928 1b3f cfce 413f
00000040: c518 4ec0 7626 723f 7c3e ae3f d3a2 203f
00000050: d778 1140 b5e6 8940 8280 08c0 cf02 193f
00000060: d3f6 a4c0 9270 f73f 1785 aa3f b3ba c53f
00000070: 47d1 f6bf 6176 e4be 36b4 1340 9559 ccbf
00000080: 38d3 d33f 1f15 69c0 42dc f5be e1b0 0540
-2.3758857 -1.7595441 -1.7148536 1.8741789 -4.1938033 0.7730713 1.5616714 1.4402363
4.900584 -2.5073109 -1.5609899 -2.3292723 2.9483962 -1.1338145 0.6060863 0.7570619
-3.2202618 0.94589937 1.3612819 0.6274845 2.2730005 4.3094125 -2.1328435 0.5976991
-5.15513 1.9331229 1.3321866 1.5447601 -1.9282616 -0.44621566 2.3078742 -1.5964838
1.6548834 -3.6419141 -0.48019606 2.0889208

lstms.weight_hh_l1 f4 [12, 3]
00000000: 37ea 97bf 390f 6e3f 7644 27bf 0ac6 6cbf
00000010: f0e2 3a40 e1ac 07bf 37f7 f6bf fa40 6440
00000020: 63a1 1dbf 0901 4cbf d576 b13e be52 083f
00000030: c911 0cbe 30b2 ef3e d543 e03e 6fe4 b23f
00000040: a4fc 2e3e f4f2 bb3f 0045 063f 46d2 66bf
00000050: 9e7e 25be 304a 0c3f 1f19 24c0 5440 f53f
00000060: a9ba 6a3e f64b 4fc0 e6a6 09bf 556e 313f
00000070: 241c 303d f1af ae3f 3982 643e aba7 943f
00000080: 3d3c 823f 721b d1c0 a71e a240 23a6 9cc0
-1.1868352 0.9299198 -0.6533884 -0.92489684 2.9201012 -0.5299817 -1.9294194 3.5664659
-0.6157438 -0.7968908 0.34660974 0.53251255 -0.1367866 0.46815634 0.43801752 1.3975962
0.17088562 1.4683518 0.52449036 -0.901646 -0.16161582 0.548007 -2.5640333 1.9160256
0.22922768 -3.2390113 -0.5377029 0.6930898 0.042995587 1.3647443 0.22315301 1.1613668
1.0174633 -6.5346003 5.0662417 -4.8952804

lstms.bias_ih_l1 f4 [12]
00000000: 3d7d 6c3f ef78 a43f e352 a5be 4709 b93f
00000010: c1f6 9cbe db58 6ebf 2f26 3cbf 2044 c03b
00000020: 93a9 3b3f 317c 1c3e 7dc7 3ebf a9eb 393e
0.923786 1.2849406 -0.322898 1.4455956 -0.30657008 -0.9310433 -0.73495764 0.005867496
0.73305625 0.1528175 -0.74523145 0.18156303

lstms.bias_hh_l1 f4 [12]
00000000: aeb2 9d3e 45b2 8a3f ce41 e23e 7fd8 973f
00000010: 8554 2b3f dae0 b6bf 422e f1be 567a 2a3e
00000020: 5546 95bd a311 883f bf69 75bf 659e df3e
0.30800384 1.0835654 0.4419083 1.1862944 0.6692584 -1.4287369 -0.47105604 0.1664823
-0.072888054 1.0630382 -0.9586448 0.43675533

dense.weight f4 [3, 90]
00000000: 9050 ddbe 7834 e3be 6e86 833e cdb5 5d3e
00000010: b9b0 cb3e 6fc6 90bd fded 40be 4217 69be
00000020: d953 633e 5efa acbd 4c78 b03e c33e 52be
00000030: 76fb bebe 62db acbe 0655 063e 85ee 82be
00000040: 2470 d4be bf2f 25be cd59 0abf 4402 b0be
00000050: cc34 55bd 5cd0 9fbe b5f6 dcbe 34a3 63be
00000060: 2348 c7be 4430 88be c3d9 10bd 79a9 d1be
00000070: 41dc 95be 13e7 bdbd 6f39 8cbe 7832 bfbe
00000080: 08c6 8b3d e744 fbbd 4fe2 9ebc 0ae4 23be
00000090: ed51 d3be 1288 b7be 037b 893d 85cc c5be
000000a0: ae7c f2be 5109 89bd a9e0 c9be 9b9b 9abe
000000b0: 3d74 ca3d 6b05 00bf f62a 2ebe fa61 bcbd
000000c0: 342a e7be 1f16 aabe fd4e c73d 42b5 ddbe
000000d0: 2f04 11be 55e9 c93c 7c83 3fbf bfb9 c8bd
000000e0: 71b1 053e c646 19bf 58d0 0d3d f82c 4e3d
000000f0: dab2 19bf 6cf7 98be 70d4 c63d 45a9 60bf
00000100: f2b5 a3be cd96 943d de3a 57bf da90 efbe
00000110: 9211 c63d 0d94 52bf 2f1b 04be b56f 78bd
00000120: 8eb7 93bf 8fa8 c6be 1a7f 003e cb79 7dbf
00000130: 570a 97be 2ddb 7fbc d53f 87bf 1a47 c4be
00000140: 6b86 e23d 18ed b3bf ee83 67be 2676 9d3e
00000150: 5fd1 babf c271 f4be 67ca ad3e ac8f b2bf
00000160: 3a8b 55bf 53f6 cf3e 06bc 83be ed3f 2a3c
00000170: abb5 30bd e629 0e3c 6350 16be 435c 4a3c
00000180: 94f9 01be 508e d2bd c091 413d 7d2a 0b3d
00000190: b9ad b53d 25b3 9b3d 6a93 463d 60b3 963d
000001a0: a919 89bd ae95 183d 7b23 3ebc b68e 8a3c
000001b0: 6f07 713b ed17 3dbd 97cf 9abd 620f 56bc
000001c0: 09fb 73bc 35fe ae3c 9dae 25bb 996d 17bd
000001d0: c722 cb3c 5809 a03d b3ab 183a a245 09bd
000001e0: fc90 313d ced9 26b9 f4ed 12bd 730a 9a3c
000001f0: cfa3 6cbd e092 713d 8503 debc fa6f 29bd
00000200: a4fc 2d3d 7c87 15bc 04b4 823d 0e84 39bd
00000210: c56f adbd 828d dfbc 6830 a7bc a376 a2bc
00000220: 6242 a9bc f09b 903c 5347 6fba b99a 63bd
00000230: 5d65 993c 3086 d8bc cdd0 50bd 0342 803c
00000240: cbde 993b 7479 e33d 2b39 49bd 0bed 8ebd
00000250: 5007 a63d a18d 3a3c 3509 debd 648e 943a
00000260: e453 dd3a 0a9a 8a3d 1f77 bc3c e7cd 19bd
00000270: f1b1 07bd fc05 633c c177 60bd fbc1 6dbd
00000280: 7167 413d 0a7f 5c3c 2939 45bc 2bb0 02bc
00000290: fd72 af3c 1b53 9a3c 2741 e73c a015 6abd
000002a0: 1f0f c23d 4126 c6bd 986e d23a b364 ea3d
000002b0: fc07 64bd a5e7 f83c ad47 8cbc 47a3 0cbe
000002c0: 45ed 0b3d 3689 873d e966 65be f59c 4e3d
000002d0: a4f1 8dbe 5431 683f 64eb 803f 8ff3 c8be
000002e0: d82b 733e 9907 e23e 97fc 35bd 550b 46bf
000002f0: 67ae 91be 35dd c7ba 4a28 d7be 768f 4bbe
00000300: 9526 2c3e 3c1e 24bf 4e13 373e e630 5a3d
00000310: 0d81 55bf d5f3 d53e 3a74 bd3d 0c73 bcbe
00000320: 6d43 9a3e 9548 953d 83e7 f4be 5fcd ac3e
00000330: ce2b 543e 520f 52bf cba9 b83e 2215 02be
00000340: 417a f8be 6b4a 903e b3fb 743e 3643 29bf
00000350: 9d76 063f 80b5 373d 1412 4cbf 03fc 103f
00000360: 7995 453e 8614 8bbf 3fe0 f53e b086 afbd
00000370: e2e6 f6be 407c 5c3f 5340 e63d 9adf cbbe
00000380: 81c1 653f 666a e5bd 33d5 13be 052c db3e
00000390: cb73 ca3d 0eee 50be e9dd 3b3f 0e6a 03be
000003a0: 988e a2bd aee3 5c3f b4b6 a3bd 449d 743e
000003b0: ead9 503f be5d babe e1e6 a73e 00be 5b3e
000003c0: 5a6b 73be c086 af3e 2350 8c3e 60cf 20bf
000003d0: 34fd 773f 5c6e 1bbe ae5e 22bf 7539 0840
000003e0: 91f5 24bf 6f69 7cbf f16f c63f b624 b9bf
000003f0: 34ae 98bf d910 2840 c132 f4bf ecbe b6bf
-0.43225527 -0.44375968 0.256885 0.21651383 0.39783266 -0.07069098 -0.18840785 -0.22762778
0.22199954 -0.08446191 0.3446678 -0.20531754 -0.37301224 -0.33761126 0.13118371 -0.255726
-0.41491807 -0.16131495 -0.54043275 -0.3437673 -0.052052304 -0.31213653 -0.43156973 -0.22230226
-0.38922223 -0.26599324 -0.035363924 -0.4094961 -0.29269603 -0.092725895 -0.27387568 -0.37343192
0.06824881 -0.122690015 -0.019395022 -0.16004959 -0.41273442 -0.35846 0.06712916 -0.386326
-0.47360748 -0.0669123 -0.39429215 -0.30196843 0.09885452 -0.5000827 -0.17008576 -0.09198375
-0.45149386 -0.33220002 0.09731863 -0.4330235 -0.14161752 0.024647394 -0.74810004 -0.09801053
0.1305597 -0.59873617 0.03462252 0.050335854 -0.6003853 -0.29876268 0.09708488 -0.87758285
-0.3197475 0.072553255 -0.840742 -0.467902 0.0967132 -0.8225716 -0.12900995 -0.060653407
-1.1540391 -0.38800475 0.12548485 -0.99013966 -0.29500076 -0.01561622 -1.0566355 -0.38335496
0.110607944 -1.405673 -0.22608921 0.30754203 -1.4595145 -0.4774304 0.33943483 -1.3950095
-0.8341557 0.40617618 -0.25729388 0.010391218 -0.043142002 0.008676982 -0.14679103 0.0123510985
-0.12692863 -0.1028105 0.04725814 0.033976067 0.088710256 0.076025285 0.04848043 0.07358432
-0.066943474 0.03725212 -0.011605139 0.016913753 0.0036778112 -0.046165396 -0.07559126 -0.013065191
-0.014891394 0.02136145 -0.002528108 -0.036969755 0.024796857 0.07814282 0.0005823925 -0.033513673
0.04335116 -0.00015912132 -0.03587146 0.01880381 -0.057773408 0.05897796 -0.027101288 -0.041366555
0.042477265 -0.00912654 0.063819915 -0.045291953 -0.08468584 -0.027289156 -0.020408824 -0.019831961
-0.020661537 0.017652482 -0.00091277546 -0.055567477 0.018725092 -0.026431173 -0.050980378 0.015656477
0.0046957484 0.1110715 -0.049126785 -0.06978806 0.081068635 0.011386306 -0.108416 0.001133394
0.0016885963 0.06767662 0.02300602 -0.03754988 -0.033128683 0.013856407 -0.054801706 -0.058046322
0.04721779 0.013458023 -0.012037554 -0.007976572 0.021417135 0.018838456 0.02822931 -0.05714953
0.0947554 -0.09675265 0.0016054688 0.11444988 -0.055671677 0.030383894 -0.017124021 -0.1373416
0.034161825 0.06617968 -0.22402538 0.050442655 -0.2772342 0.9070027 1.0071836 -0.3924832
0.23747194 0.44146422 -0.04443034 -0.7736104 -0.2845337 -0.001524842 -0.42022926 -0.19878945
0.16811593 -0.64108634 0.17878458 0.05326929 -0.8340004 0.41787592 0.09250684 -0.36806524
0.30129567 0.072892345 -0.4783288 0.33750436 0.20719835 -0.82054627 0.36067042 -0.12703374
-0.48530772 0.28181776 0.2392414 -0.6611818 0.5252474 0.044850826 -0.79715085 0.5663454
0.192953 -1.0865638 0.4802265 -0.085706115 -0.48223025 0.8612709 0.112427376 -0.39819032
0.8974839 -0.112019345 -0.14436798 0.42807022 0.09885367 -0.2040331 0.73385483 -0.12833425
-0.07937354 0.8628491 -0.07993832 0.23888117 0.8158251 -0.36399645 0.32793334 0.21459198
-0.2377142 0.34282494 0.2740489 -0.6281643 0.9687073 -0.15178818 -0.6342572 2.128507
-0.64437205 -0.9859838 1.5502912 -1.4464328 -1.1928163 2.6260283 -1.9077989 -1.4277015

dense.bias f4 [3]
00000000: 8066 8bbe 6dac 063f de21 e93f
-0.2722664 0.5260685 1.821346
