models/lstm_res/1344.pt (torch, 5271 bytes, 10 tensors)

lstms.weight_ih_l0 f4 [12, 3]
00000000: e404 1abe 59ec cdbe e711 6bbe 3b92 073f
00000010: 1029 353f 1b1b bcbe 9131 5ebd 5501 343f
00000020: b1c2 a4be 4654 9a3e fe36 4f3b 6966 2d3f
00000030: 646d f1be d05d 733f 61b8 fa3c 8469 423f
00000040: 0f77 2d3f b9df dc3e bd86 eebe 46c6 543d
00000050: b6df 97bd fa7e 0a3f e178 a8be 5dee 86be
00000060: 56fe b3be 6bce 43be 4670 c5be 6956 adbc
00000070: 5b81 23bf 33be 9d3e 68ed 7f3f 4712 853f
00000080: f7c1 213f 2919 7b3f ced8 893f e589 f13e
-0.15040928 -0.4021938 -0.22956048 0.52957505 0.7076578 -0.3673943 -0.05424649 0.7031453
-0.32179788 0.3014242 0.0031618471 0.6773439 -0.4715377 0.9506502 0.030605497 0.75942254
0.67759794 0.43139437 -0.46587172 0.0519469 -0.07415716 0.541 -0.32904723 -0.26353732
-0.3515498 -0.19121711 -0.3856222 -0.021159368 -0.63869256 0.30809173 0.9997163 1.0396203
0.6318659 0.98085266 1.0769289 0.47175518

lstms.weight_hh_l0 f4 [12, 3]
00000000: f92e b9be 6008 8d3e aa91 2e3d 23d5 ad3e
00000010: 5743 093f d041 69bc 8dac 13bf 2cac 013f
00000020: c534 503e 87f3 9f3e e791 66be c9e1 403e
00000030: 7881 ecbe 8b14 593e 3c87 1c3d 9d9f 34bf
00000040: 8cfd 643e 48e8 d9be ec97 2d3f 0211 2fbe
00000050: 72f9 933d 85f7 203f d0be 68bf f28e 853f
00000060: 7456 92bd 4c59 7abf 87e4 a73e 6e86 e33e
00000070: 50e0 71bf d1b4 133f a4e8 7cbf 9fab a8bd
00000080: 193e 76bf 8525 24bf 4da4 833f ec9a 6abe
-0.3616865 0.27545452 0.042619385 0.33951673 0.5361838 -0.014236882 -0.57685167 0.5065334
0.2033263 0.31240484 -0.22516595 0.1883613 -0.46192527 0.21199243 0.038214907 -0.7055605
0.22362345 -0.4256003 0.6780994 -0.17096332 0.07225312 0.62877685 -0.90916157 1.0434248
-0.07145396 -0.97792506 0.3279154 0.444385 -0.944829 0.5769778 -0.9879248 -0.08235859
-0.96188504 -0.6411975 1.0284516 -0.2291066

lstms.bias_ih_l0 f4 [12]
00000000: e9e3 32bf ec77 ec3d 16d2 943d 4fc2 f8be
00000010: 1489 5d3b 2d05 ad3e 2382 0abf 4dc8 113f
00000020: 214a 55bf 3910 cc3d 5584 3c3e c34d 143f
-0.69879013 0.11546311 0.07266633 -0.48585746 0.0033803629 0.3379301 -0.5410482 0.5694626
-0.83316237 0.09964032 0.18409856 0.57931155

lstms.bias_hh_l0 f4 [12]
00000000: 360e 993e c3d0 d43e 181a 123f cef9 eebe
00000010: ea07 45be 7162 373e 87f3 0cbf 24fa 66be
00000020: d744 92be 4b33 49bf 4f5e c73e 6698 dc3e
0.29893655 0.41565523 0.57071066 -0.4667496 -0.192413 0.17908646 -0.55059093 -0.22556359
-0.28568146 -0.7859389 0.3893914 0.4308502

lstms.weight_ih_l1 f4 [12, 3]
00000000: edbf 4ebe 4733 92bf 3642 d9be 82ab 69bf
00000010: 145a 05bf 1706 45bf d063 00be 283d 09be
00000020: ba24 133d f079 2d3e ab86 b7bf 2d37 283e
00000030: 3afd 2abe e502 62be 628c f1be eda7 c2be
00000040: 3881 0abf fbe6 073f 2cd6 0cbf 6f28 d5be
00000050: 947b 2f3e e2ea 17bf 444b 9fbf 11bd a13e
00000060: 32eb 4f3f 082b 5fbd f898 123f 2c59 06bd
00000070: 43b2 afbf a14a 64be cdad 50bf 27ab e2be
00000080: 3985 b0bf 57f3 3c3e 40ed e6bf a596 4abe
-0.20190401 -1.1421899 -0.42433327 -0.91277325 -0.52090573 -0.7696242 -0.12538075 -0.13402236
0.035923697 0.16941047 -1.4337972 0.16427298 -0.16698161 -0.22071417 -0.47177416 -0.38018742
-0.5410342 0.53086823 -0.550143 -0.4163241 0.17136985 -0.5934278 -1.2444844 0.3158956
0.81218255 -0.054484397 0.5726466 -0.032799885 -1.3726276 -0.22294094 -0.815152 -0.44271204
-1.3790656 0.18452202 -1.8041153 -0.19784029

lstms.weight_hh_l1 f4 [12, 3]
00000000: d706 e73e 0006 993d 48a4 2dbf af96 b53f
00000010: 7795 823f f9bb 87bf 0297 e13e ecb3 0d3f
00000020: b87c 4dbf 1c12 75be d138 f9be 610c b8be
00000030: 1cad 313e cf4d 2b3f bcce 20be 85db 483e
00000040: 2296 fb3e 0fab 0fbf 7d64 2b3f b479 83be
00000050: 9a67 5abd 4591 e93d 88d7 aebe d7db 0bbf
00000060: 1308 11bf e70d 12bf 70c1 4c3f 1979 063e
00000070: 29ac 6fbd e426 1bbf c935 233e 62c8 c6bd
00000080: 97ef 1bbf 47fc 693f e3d9 d03e 0679 a6be
0.45122406 0.074718475 -0.678288 1.418661 1.0201863 -1.060424 0.44060522 0.55352664
-0.8026843 -0.2393269 -0.4867616 -0.35946944 0.17351192 0.669156 -0.15703863 0.1961499
0.4913798 -0.5612039 0.6695021 -0.2567879 -0.05332146 0.11404661 -0.34148812 -0.54632324
-0.56652945 -0.57052463 0.7998266 0.13132133 -0.058513794 -0.6060622 0.15938486 -0.09706189
-0.6091246 0.9140057 0.40791234 -0.3251421

lstms.bias_ih_l1 f4 [12]
00000000: 8c46 f13a e264 283f 9b2f 153f 76d3 033f
00000010: 7d23 173e 9ddb 2a3f 159b 4e3f db51 553d
00000020: 07f6 40bf fdff 5c3f 5d2b 3a3f 0476 2e3f
0.0018407865 0.65778935 0.58275765 0.5149454 0.14759631 0.66741353 0.80705386 0.052080017
-0.7537541 0.8632811 0.7272242 0.6814883

lstms.bias_hh_l1 f4 [12]
00000000: cf44 3a3f deb9 143f c1b8 803f 3cdb e3be
00000010: d5a9 343f 096d 2a3d 819c 583f 74e6 b63e
00000020: 804a a6bf 53a6 643e 4b45 393b e5ed 93bd
0.72761244 0.5809611 1.0056382 -0.445032 0.70571643 0.04160789 0.84613806 0.35722697
-1.2991486 0.22329073 0.0028270062 -0.07223109

dense.weight f4 [3, 90]
00000000: 3114 c23e d6bc e2be e220 f7be 6a9c c93e
00000010: dc9d 98be c883 b6be 60ee 963e c99d 69be
00000020: 2316 9fbe b774 863e 8b66 1fbe d085 a4be
00000030: e5f9 6d3e 50e3 34be bd6b abbe cc16 6f3e
00000040: c0c1 4dbe 01a0 88be f42b b13e 0f73 03be
00000050: ce8d ebbe a4bd 813e 231f 8cbd a84e a4be
00000060: 0080 bd3e c612 f1bd f9eb c6be a205 5c3e
00000070: 8371 e6bd fad0 82be 301a 913e d4a3 a6bd
00000080: 10fc 7ebe 8f38 783e 53dd 3dbe 51f8 d8be
00000090: 285d 823e 651f cebd f685 5cbe 6ea3 993e
000000a0: a6af 32be 1828 a0be 0095 ad3e 3bb9 3dbe
000000b0: 8ac8 8cbe b95f b53e 88ad eebd 2fe4 cebe
000000c0: b3d2 303e 335e 5dbe 7970 a7be 0e28 ae3e
000000d0: 3448 f9bd 776c 9abe 8cfc 8b3e 1af1 e1bd
000000e0: d631 babe 302d 583e e6d4 4bbe 5f63 c8be
000000f0: ecf2 bb3e c973 06be 0a2c b0be 24a8 b03e
00000100: fa6d 6ebe be64 84be 89f7 8c3e ff1b 2abe
00000110: d1b2 d4be c34c 9f3e cdff f6bd 493f 89be
00000120: 3be5 9d3e cc7a 31be b2b0 acbe 8cb1 b53e
00000130: d22c 5dbe 49ce 7cbe cc3b bf3e 86f0 64be
00000140: 958b 98be f630 b73e f8ae e7bd 29db 5cbe
00000150: 6857 803e de96 7dbe 4f44 90be a0aa 6f3e
00000160: 2136 4abe f172 88be ae8c a33d 0965 603d
00000170: 6919 d5bd 702a a8bd 447a e1bd 54f1 39bd
00000180: 41d1 f8bc d0eb babd 078b edbd b52c 3cbc
00000190: 3825 edbd 4d72 35bc 89a0 d73d d920 aa3d
000001a0: aa7d 163b 40aa ebbc bfec 0f3d 49cd 0bbe
000001b0: 7b26 8ebd db78 9dbd e269 533c 6a5e c73d
000001c0: 5ecb f03c 11e0 0dbe b81f 72bd f591 8cbd
000001d0: cd7e 7abd 4d8a 8abd 8410 13bc cefa ff3b
000001e0: 7b39 133d 6519 793d 8945 8a3d 8a0d a33d
000001f0: 8774 11bd 96f1 6a3c 2dcf f9bc e573 a53d
00000200: 2caf f3bc bbc2 c0bc d6e2 a23d 933d a23c
00000210: 67df 2e3d 25ec d4bd f949 d7bd 68cd 45bd
00000220: f5d9 9abd 42ad bc3c b1c4 55ba 56f1 63bd
00000230: bed9 f5bd 1b2c 23bd 1edc 393c 11e5 02bd
00000240: 0482 b93d c5fa f0bd 21ec e03c ec26 3ebd
00000250: 062a 603d 203f d63c c603 0ebd 85c7 2cbd
00000260: 0b49 8bbc 2bec af3d e864 cdbd 0504 72bd
00000270: 3f26 14bd c865 97bd 7730 8dbd 4507 253d
00000280: 4a0b 223d bb57 b63b fb32 733d 561d 73bc
00000290: 02bd 293d bca5 06bd cd3b 19bd 4036 6c3d
000002a0: 694c 9e3d 632c 57bd 79b2 cabd 3fd2 34bc
000002b0: 4c16 98bb 2940 96bd e9fe 6dbd f4a3 e03c
000002c0: 0114 113c d59f 7c3c ca8e cebd 1d17 e73c
000002d0: 7ec4 d23e 8032 3b3d a2a8 e9be 927a e93e
000002e0: 4a96 7c3e 5717 bcbe 06fe b93e c632 463e
000002f0: fc9b e1be 9923 ae3e 5b52 603e 9c4e 10bf
00000300: ff88 cc3e 558f 8b3e 1e96 02bf a95e fa3e
00000310: 141b 8e3e adad 11bf 7ac8 ac3e df59 903e
00000320: e49c f2be 70b0 cf3e 49f8 8a3e 87e3 17bf
00000330: 8f33 d73e c29f b83e 9f7e f2be 4503 053f
00000340: e947 d23e f349 f9be 1718 cd3e 61c5 e73e
00000350: 84d8 1bbf 43cd 013f 0b27 943e 3237 dbbe
00000360: 693d 093f 2e04 023f f102 0dbf ba5a d23e
00000370: 5eac bf3e fd58 f4be ee19 063f fc5f f63e
00000380: 3b0d efbe 6b2c 0e3f 7ff0 d43e 7cd3 25bf
00000390: 8fd0 ed3e e66f d63e 92f9 02bf ca2b 083f
000003a0: dbe5 e93e f6ba 0bbf 70a5 e13e 9d25 ff3e
000003b0: 4b0e 06bf cf37 053f 2a29 163f aad8 17bf
000003c0: c20a 073f 3d22 103f dbc2 19bf c7e0 063f
000003d0: d0ab 2e3f b7a7 35bf 295c 033f a895 1c3f
000003e0: 08b5 0ebf b799 f43e 4943 213f 5e38 2abf
000003f0: 4dcb 093f 4dc4 3f3f 06f8 10bf 4394 313f
0.3790603 -0.44284695 -0.48267275 0.39377147 -0.29807937 -0.35647416 0.2947874 -0.22814097
-0.31071576 0.2626092 -0.15566461 -0.3213334 0.23239858 -0.17664838 -0.33480635 0.2334854
-0.20093441 -0.26684573 0.34603846 -0.1283686 -0.46006626 0.25339997 -0.06841876 -0.3209126
0.3701172 -0.11771159 -0.38851908 0.21486524 -0.112521194 -0.2555006 0.28340292 -0.081367165
-0.24900842 0.24240325 -0.1854146 -0.4237695 0.25461698 -0.10064582 -0.21535477 0.300075
-0.17449817 -0.3128059 0.3390274 -0.18527691 -0.2749675 0.35424593 -0.11654192 -0.40408465
0.17267875 -0.21617965 -0.32702997 0.34014934 -0.12171975 -0.30160877 0.27341115 -0.110323146
-0.36366147 0.21110988 -0.19905433 -0.39138314 0.36708772 -0.13130106 -0.344086 0.3450328
-0.2328414 -0.2585811 0.27532604 -0.16612242 -0.41542676 0.31113252 -0.12060509 -0.26806095
0.3083895 -0.17332 -0.33728558 0.3548702 -0.21599129 -0.24688067 0.3735031 -0.22357377
-0.29793993 0.35779542 -0.113126695 -0.21567978 0.25066686 -0.24764583 -0.28177115 0.23404932
-0.19747211 -0.26650193 0.07985817 0.054783855 -0.10405237 -0.08211219 -0.110096484 -0.045396164
-0.030373218 -0.09127009 -0.11598783 -0.011485268 -0.115793645 -0.011074615 0.105286665 0.083070464
0.0022963085 -0.028767705 0.035137888 -0.13652529 -0.06940933 -0.07689067 0.012903662 0.09734805
0.029393848 -0.13855006 -0.05911228 -0.068637766 -0.061156083 -0.0676466 -0.008976106 0.0078118807
0.03594349 0.060815234 0.06751544 0.07961567 -0.03551152 0.014339825 -0.030494297 0.08078746
-0.029746614 -0.023530355 0.07953422 0.019804752 0.04269352 -0.103966035 -0.10512156 -0.048291594
-0.07561103 0.023031835 -0.00081546145 -0.055650078 -0.12004422 -0.039836984 0.011343984 -0.031956736
0.09058002 -0.117665805 0.027456345 -0.046423838 0.054727577 0.026153147 -0.034671567 -0.042182464
-0.017002603 0.08589967 -0.10029012 -0.059085865 -0.036169287 -0.0739246 -0.068940096 0.040290136
0.039561547 0.0055646575 0.05937479 -0.014838537 0.041440018 -0.0328729 -0.037410546 0.057668924
0.07729418 -0.052532565 -0.09897322 -0.011036455 -0.00464133 -0.07336456 -0.05810443 0.027421929
0.008854867 0.015418966 -0.100858286 0.028209263 0.41165537 0.045702457 -0.4563647 0.45601326
0.24666706 -0.36736557 0.36326617 0.19355306 -0.4406432 0.34011534 0.21906416 -0.5636995
0.3994827 0.2725779 -0.5101031 0.48900345 0.27755034 -0.56905633 0.337467 0.28193566
-0.47385323 0.405643 0.27142552 -0.59331554 0.42031524 0.36059386 -0.4736223 0.51958114
0.41070488 -0.4868923 0.40057442 0.45267776 -0.6087725 0.5070383 0.28936037 -0.42815548
0.5360933 0.5078763 -0.55082613 0.41084844 0.37436193 -0.47724143 0.52383316 0.48120105
-0.46689782 0.55536526 0.41589734 -0.64775825 0.4644818 0.41882247 -0.51162064 0.53191817
0.45683178 -0.54582155 0.4407153 0.49833384 -0.5236556 0.5203828 0.5865656 -0.5931498
0.5275079 0.56302243 -0.6006295 0.52686733 0.68230915 -0.7095904 0.513125 0.6116586
-0.5574498 0.47773525 0.62993294 -0.6649226 0.5382584 0.74908906 -0.56628454 0.69366854

dense.bias f4 [3]
00000000: 68b1 fe3e d645 963b 2a9f eb3e
0.49744725 0.004585962 0.4601987
